weights/pretrain/TDQN_ptv808_test_1691451460/clsf.pt (torch, 8155 bytes, 2 tensors)

weight f4 [7, 256]
-0.028585583 -0.051286258 -0.049496442 -0.046212964 0.062347308 0.007787913 0.047219716 0.056744978
0.011753745 0.016178377 -0.058565766 -0.03511657 0.028371766 -0.019556716 0.04871001 0.034482062
-0.060633212 0.018904045 -0.015591562 -0.022716783 0.018720597 0.0009001717 -0.009137571 -0.019158758
-0.028835848 0.0071531087 0.047984943 0.010675997 0.062036738 0.011098862 0.006649226 0.01642295
0.011440568 0.041335322 0.030295894 0.045267098 -0.030919023 0.05116056 -0.055796318 0.03928508
-0.027069546 -0.052616365 0.04860571 -0.04225178 -0.024562858 -0.029799089 -0.0325702 -0.014991544
-0.0017714351 -0.048446164 -0.013879456 0.047798082 0.040005058 -0.054422297 -0.022911727 0.007529117
0.04272501 -0.059280634 -0.023970976 -0.024960853 -0.021666676 0.028720543 0.040429786 -0.04131268
0.04857909 0.05448547 -0.059238352 0.029457077 0.021134883 0.055256322 -0.060432345 0.024976142
0.04202903 -0.010639928 -0.032233015 0.009326458 0.02808503 0.006340809 -0.013734907 -0.050281666
-0.012994222 -0.03185436 -0.039319903 -0.052634507 0.012128487 0.04573743 -0.04123795 -0.038785294
-0.01957801 -0.01624728 0.0054049045 0.053821594 0.057964303 0.056064717 -0.026576214 -0.03516841
-0.010900028 -0.04484038 -0.053854607 -0.014856309 -0.016711473 0.020129375 -0.058755152 0.030388318
0.061522618 -0.009248771 0.05648189 0.030173965 -0.034363948 -0.059704416 -0.027543627 0.0046434477
-0.018106692 0.037444025 0.061448663 0.034899548 -0.009435035 -0.031758413 0.045987576 -0.01533521
-0.053703897 -0.033055574 0.009095304 -0.015751533 0.048322573 0.032077216 0.032001667 0.00054864585
0.05359626 -0.031250417 0.0067290664 0.009641856 0.012340657 -0.017105624 -0.011512041 -0.059486948
0.056670897 -0.051499166 0.019697778 0.046606086 0.0028002113 -0.0140649155 -0.024907991 0.007047333
-0.02500201 -0.03282903 0.023405485 0.059563234 -0.019785523 -0.05999028 0.017025135 -0.056162693
0.015378118 0.014753662 0.0113336295 -0.034869485 -0.041010827 0.034102045 0.00860326 0.059160113
0.03182956 0.039664246 0.017877407 0.022958472 -0.039163932 -0.0597827 -0.0547451 0.008700877
-0.014896117 -0.039913088 -0.012267359 0.021666974 0.050758004 -0.035470784 0.046071783 0.06053804
-0.005660057 0.024193272 -0.029356658 0.027803786 -0.021105036 0.04224237 -0.045421652 0.007961355
0.024370119 -0.046183333 0.009449251 0.05540456 0.002941303 0.01931496 -0.04328017 -0.03146582
0.01548557 0.05509893 0.022008412 -0.0049631074 -0.027594052 0.055691116 0.018778041 -0.05306504
0.047859296 -0.012430221 -0.033548623 0.06151475 0.018526971 -0.023258135 -0.021462455 0.037077256
-0.059249155 0.0587039 0.0074009225 -0.005776651 -0.0064080507 0.008550152 -0.013264827 -0.036681227
-0.055160224 0.037219003 0.030304044 0.01430054 -0.047195755 -0.027726822 -0.002135463 0.058165424
0.008313738 -0.04355807 -0.05023863 -0.0060218275 -0.06173686 -0.018546678 -0.02368071 0.03277217
0.046258345 0.031055756 0.018092409 -0.02353692 -0.016858414 0.029633902 -0.005506821 -0.051977247
0.024510369 0.02864433 0.001984641 -0.007561341 -0.05366099 -0.006785147 -0.012117393 -0.041101143
-0.0030077323 -0.05722037 -0.00773371 0.007962815 -0.057911903 -0.012035102 -0.03653623 0.015474148
00000000: 502c eabc 8a11 52bd c8bc 4abd ce49 3dbd
00000010: e45f 7f3d c031 ff3b 7669 413d 6c6d 683d
00000020: c892 403c 8488 843c a8e2 6fbd 64d6 0fbd
00000030: e86b e83c 6835 a0bc 2684 473d 103d 0d3d
00000040: 885a 78bd a8dc 9a3c c073 7fbc 8c18 babc
00000050: f05b 993c 80f9 6b3a c0b5 15bc d4f2 9cbc
00000060: 2839 ecbc a064 ea3b dc8b 443d 60ea 2e3c
00000070: 3c1a 7e3d 00d8 353c c0e1 d93b 6c89 863c
00000080: 3871 3b3c 3a4f 293d 182f f83c fe69 393d
00000090: e449 fdbc bc8d 513d ae8a 64bd 64e9 203d
000000a0: f4c0 ddbc 4284 57bd c816 473d 3410 2dbd
000000b0: 0c38 c9bc 381d f4bc 5468 05bd 189f 75bc
000000c0: 802f e8ba 7c6f 46bd a866 63bc ecc7 433d
000000d0: 58dc 233d eae9 5ebd 60b1 bbbc d0b6 f63b
000000e0: 6c00 2f3d 40d0 72bd c85e c4bc b47a ccbc
000000f0: 507e b1bc 5847 eb3c b499 253d 7c37 29bd
00000100: defa 463d 282c 5f3d eaa3 72bd f84f f13c
00000110: 1023 ad3c 7454 623d e887 77bd c49a cc3c
00000120: a226 2c3d 1853 2ebc c406 04bd 00ce 183c
00000130: 9412 e63c 90c6 cf3b 6008 61bc 26f4 4dbd
00000140: b8e5 54bc b879 02bd e80d 21bd 4897 57bd
00000150: 90b6 463c 2c57 3b3d 20e9 28bd 54dd 1ebd
00000160: 1062 a0bc 0419 85bc a01b b13b 0874 5c3d
00000170: fa6b 6d3d 1ea4 653d 5cb6 d9bc c00c 10bd
00000180: 0896 32bc 8caa 37bd a696 5cbd e067 73bc
00000190: 80e6 88bc 5ce6 a43c 3ea9 70bd ecf0 f83c
000001a0: 24ff 7b3d 2888 17bc 8e59 673d 642f f73c
000001b0: 36c1 0cbd 9e8c 74bd 2ca3 e1bc 1028 983b
000001c0: 7c54 94bc e85e 193d 98b1 7b3d d4f2 0e3d
000001d0: 6895 1abc 1c15 02bd 785d 3c3d 8840 7bbc
000001e0: 9ef8 5bbd 4865 07bd 7804 153c 5c09 81bc
000001f0: e4ed 453d 6663 033d 2e14 033d 00d3 0f3a
00000200: c087 5b3d 7000 00bd 807f dc3b e0f8 1d3c
00000210: 7830 4a3c 1821 8cbc 009d 3cbc 96a8 73bd
00000220: be1f 683d caf0 52bd 3c5d a13c 06e6 3e3d
00000230: c083 373b 8870 66bc d80b ccbc 50ed e63b
00000240: 04d1 ccbc bc77 06bd dcbc bf3c 94f8 733d
00000250: 4015 a2bc 5eb8 75bd 4c78 8b3c da0a 66bd
00000260: 80f4 7b3c 58b9 713c b0b0 393c 4ed3 0ebd
00000270: f8fa 27bd 96ae 0b3d b0f4 0c3c e051 723d
00000280: b65f 023d fa76 223d a473 923c 6813 bc3c
00000290: 5c6a 20bd b4de 74bd 663c 60bd 208e 0e3c
000002a0: d80e 74bc e87b 23bd 08fd 48bc f07e b13c
000002b0: a0e7 4f3d d049 11bd c4b5 3c3d bcf6 773d
000002c0: 0078 b9bb f830 c63c 607d f0bc c4c4 e33c
000002d0: 78e4 acbc 5606 2d3d 0e0c 3abd 5870 023c
000002e0: d8a3 c73c bc2a 3dbd 08d1 1a3c e4ef 623d
000002f0: e0c2 403b 683a 9e3c 8c46 31bd 4ee2 00bd
00000300: 30b7 7d3c 6aaf 613d fc4a b43c 90a1 a2bb
00000310: ec0c e2bc 5e1c 643d 68d4 993c ba5a 59bd
00000320: 1c08 443d 20a8 4bbc 486a 09bd e4f6 7b3d
00000330: e0c5 973c d887 bebc 08d2 afbc 52de 173d
00000340: 3eaf 72bd 8073 703d 7083 f23b 104a bdbb
00000350: a0fa d1bb f015 0c3c b854 59bc 0e3f 16bd
00000360: b0ef 61bd f472 183d 3040 f83c d04c 6a3c
00000370: 5650 41bd 5c23 e3bc 20f3 0bbb de3e 6e3d
00000380: 5836 083c f269 32bd 06c7 4dbd c052 c5bb
00000390: cadf 7cbd 34ef 97bc 0cfe c1bc 1c3c 063d
000003a0: 6479 3d3d a468 fe3c 8836 943c 80d0 c0bc
000003b0: a81a 8abc ccc2 f23c 9072 b4bb 18e6 54bd
000003c0: f8c9 c83c 84a7 ea3c c010 023b 20c5 f7bb
000003d0: a0cb 5bbd f055 debb 0888 46bc ac59 28bd
000003e0: 601d 45bb e85f 6abd 106b fdbb 7876 023c
000003f0: 0835 6dbd e02e 45bc 04a7 15bd 4887 7d3c

bias f4 [7]
0.0038443431 -0.03882592 -0.024469063 -0.03220529 -0.043348692 -0.0055619106 0.033089057
00000000: 60f1 7b3b ee07 1fbd 5873 c8bc b2e9 03bd
00000010: 668e 31bd b040 b6bb 6488 073d
