weights/pretrain/TDQN_ptv808_test_1691451460/lest.pt (torch, 6107 bytes, 2 tensors)

weight f4 [5, 256]
0	0xbd7fd628	-0.062460095
1	0xbd1aa1f4	-0.037752107
2	0x3d70fffa	0.05883787
3	0xbd151f80	-0.036406994
4	0xbc5b9aa0	-0.013403565
5	0x3c7079f0	0.01467751
6	0x3d33e332	0.043917842
7	0x3b858990	0.0040752366
8	0x3cedeaac	0.029042564
9	0x3d4d2604	0.050085083
10	0x3d539b9c	0.051662073
11	0xbb0d8680	-0.002159506
12	0x3c914540	0.017733216
13	0xbc351cf0	-0.0110542625
14	0xbd603054	-0.05473359
15	0xbbcde0f0	-0.006282918
16	0xbcab5084	-0.020912416
17	0x3d2d757a	0.042348363
18	0xbd495fe0	-0.0491637
19	0xbd45baba	-0.04827378
20	0x3bbd3140	0.0057736933
21	0x3c56a968	0.013101913
22	0x3bde5590	0.006785102
23	0x3cfa7f20	0.030578196
24	0xbd415ce0	-0.047207713
25	0xbcf5d250	-0.030007511
26	0x3c96c658	0.018405125
27	0x3cfa5eec	0.03056284
28	0x3d16ce78	0.036817998
29	0xbcc3e1a0	-0.023911297
30	0xbd1d2478	-0.038364857
31	0x3d458ed0	0.0482319
32	0x3bce6fd0	0.00629995
33	0xbcd1ec0c	-0.025625251
34	0x3be192f0	0.0068839714
35	0xbd629d46	-0.05532577
36	0xbbe19290	-0.0068839267
37	0x3ccab3c0	0.024743915
38	0xbd5f7f76	-0.054564916
39	0xbd6178b4	-0.055046752
40	0xbd7ce84a	-0.061744966
41	0x3d4562fa	0.048190095
42	0xbc2a1628	-0.010381259
43	0xbd74f5da	-0.059804775
44	0x3d0497b4	0.032371238
45	0x3d6ff1aa	0.05858008
46	0x3cec1964	0.028820701
47	0xbd2c9e9e	-0.042143457
48	0xbd7f9a78	-0.062403172
49	0xbc3041d8	-0.010757886
50	0xbc5680d0	-0.013092235
51	0xbd25f6a8	-0.040518433
52	0xbca0baec	-0.019620381
53	0x3cf08ea4	0.029364891
54	0x3bfdf510	0.007750161
55	0x3a47e480	0.0007625297
56	0xbd55a77c	-0.05216168
57	0x3c63a810	0.01389505
58	0xbcb6a000	-0.02229309
59	0x3b99fef0	0.0046995804
60	0x3c9c912c	0.019112192
61	0xbd36c010	-0.04461676
62	0xbd312950	-0.04325229
63	0x3c3116e8	0.010808684
64	0xbc4cef50	-0.012508228
65	0x3d3435b0	0.043996513
66	0x3c6f3c30	0.014601752
67	0x3d3d768a	0.046255626
68	0x3c0948d8	0.008379184
69	0x3b13f580	0.002257675
70	0xbb379660	-0.0028013214
71	0x3a965cc0	0.0011471733
72	0x3d0b4bfc	0.03400801
73	0xbd238bb6	-0.03992816
74	0xbc88c784	-0.016696699
75	0xbd423ec8	-0.047423154
76	0xbd1a7a9e	-0.037714593
77	0x3d25604c	0.04037504
78	0xbd6dcf58	-0.058059067
79	0x3d047756	0.03234037
80	0xbd62acf4	-0.055340722
81	0x3c5175d0	0.012784436
82	0xbc88588c	-0.016643785
83	0xbd3b3faa	-0.04571501
84	0x3d78deb8	0.060759276
85	0xbd09a564	-0.033604994
86	0x3cdd02a4	0.026978798
87	0x3c82d7cc	0.01597204
88	0x3d3074e4	0.043080226
89	0xbd12ebc6	-0.035869382
90	0xbd034828	-0.032051235
91	0xbd76b40a	-0.060230292
92	0x3c5ea420	0.013588935
93	0x3c24b6e0	0.010053366
94	0xbd670ecc	-0.056410596
95	0xbc10d138	-0.008838944
96	0x3d02fbd8	0.03197846
97	0xbc1efe68	-0.00970421
98	0x3bce1960	0.006289646
99	0xbc999044	-0.018745549
100	0xbc33e380	-0.010979533
101	0xbd12b64e	-0.03581839
102	0x3cdb49bc	0.026768558
103	0x3c88c824	0.016696997
104	0x3d1e97ea	0.038719095
105	0x3bd0ded0	0.0063742176
106	0x3c45fd90	0.01208438
107	0xbd5f01ee	-0.0544452
108	0x3d165696	0.03670367
109	0x3cc80940	0.024418473
110	0x3cf55cd8	0.029951498
111	0x3c255270	0.010090455
112	0x3d3518fc	0.04421328
113	0x3cf03c3c	0.029325597
114	0xbc4a7ec8	-0.012359329
115	0x3d5f5642	0.05452562
116	0xbc979db4	-0.018507816
117	0xbd0c76b6	-0.0342929
118	0xbc88f934	-0.016720392
119	0x3af27c80	0.0018500239
120	0x3c86caec	0.016454183
121	0x3d1720ce	0.03689652
122	0xbd2df31e	-0.042468183
123	0x3d79b330	0.060961902
124	0x3c83ce40	0.016089559
125	0x3d02981c	0.031883344
126	0xbd4a8696	-0.049444757
127	0x3d377f12	0.044798918
128	0x3c946528	0.018114641
129	0x3d3eaa0e	0.046548896
130	0x3c2db3c0	0.010601938
131	0x3d2bb428	0.041919857
132	0xbc8a2cd0	-0.016867071
133	0xbcc8797c	-0.02447199
134	0xbcbbbe14	-0.022917785
135	0x3d290c90	0.041271746
136	0xbcc6dc0c	-0.024274848
137	0x3d755dd0	0.05990392
138	0xbc997f9c	-0.018737607
139	0x3adc8d40	0.0016826764
140	0xbc9b866c	-0.018984996
141	0xbd2c62dc	-0.042086467
142	0x3d6b7aa0	0.05748999
143	0xbc9c0e48	-0.019049779
144	0x3d7def86	0.061996005
145	0x3c9678d8	0.01836817
146	0x3d7c3600	0.061574936
147	0x3d2aa9fe	0.041666023
148	0x3d1c9e8e	0.038237147
149	0x3c9bca60	0.019017398
150	0x3c46b400	0.012127876
151	0xbcb5b624	-0.022181578
152	0x3d647d86	0.05578377
153	0xbb11b8c0	-0.0022235364
154	0x3cd4aaac	0.025960289
155	0xbc392e48	-0.011302538
156	0xbc718608	-0.014741428
157	0x3ccb28f8	0.024799809
158	0x3d54df58	0.05197081
159	0x3d43512c	0.047684833
160	0x3b673420	0.0035278872
161	0x3d56d9ce	0.05245381
162	0xbd6b8234	-0.05749722
163	0x3c77c4e8	0.01512263
164	0x3d298be2	0.04139317
165	0x3ca5b8d4	0.020229734
166	0xbcbb6e9c	-0.022879891
167	0x3c282460	0.010262579
168	0xbc7d24c8	-0.015450664
169	0xbcea15d8	-0.028574869
170	0x3a058800	0.0005093813
171	0xba751c80	-0.0009350255
172	0x3d75fc5c	0.06005512
173	0xbd60092c	-0.054696247
174	0x3d31c13c	0.043397173
175	0x3c9915b4	0.018687107
176	0xbd20c1ae	-0.039247207
177	0xbcdb44b0	-0.026766151
178	0x3ce2eb9c	0.027700238
179	0xbc850f44	-0.01624263
180	0x3c97e060	0.018539608
181	0x3d1c9a76	0.038233243
182	0x3d272e52	0.04081566
183	0x3cba23bc	0.022722118
184	0x3d284f8a	0.04109148
185	0x3c891780	0.016734838
186	0xbc9b2f88	-0.018943563
187	0xbd64c51c	-0.05585204
188	0x3d76f1d2	0.06028921
189	0x3d24c0a4	0.04022278
190	0x3d1d2d70	0.03837341
191	0x3bc98b90	0.0061506703
192	0x3d7b65c6	0.061376356
193	0x3d7d8256	0.061891876
194	0xbd380ae4	-0.04493226
195	0x3d557f8e	0.0521236
196	0x3cfad6b4	0.030619957
197	0xbd59cc46	-0.053173326
198	0xbd71c510	-0.059025824
199	0xbd6e25ba	-0.058141448
200	0xbd01ec5c	-0.03171955
201	0x3c2faf80	0.010722995
202	0xbd763346	-0.060107492
203	0x3ab77480	0.0013996512
204	0x3cbdc124	0.023163386
205	0x3cfb579c	0.030681424
206	0xbccbeda8	-0.024893597
207	0x3d6aefe4	0.057357684
208	0x3d5594b8	0.052143782
209	0xbc8ef5c0	-0.017451167
210	0xbbad5ac0	-0.0052903593
211	0x3d06e004	0.03292848
212	0xbd1bf614	-0.038076475
213	0xbd5d3e14	-0.05401428
214	0xbd26867a	-0.04065559
215	0x3d50a9c8	0.050943166
216	0x3c0444e8	0.008073069
217	0xbb82de70	-0.003993802
218	0x3bdfe820	0.0068330914
219	0x3cef13ec	0.029184304
220	0x3d341998	0.04396972
221	0x3d0d60e2	0.034516223
222	0xbd687960	-0.056756377
223	0xbcf0f2cc	-0.02941265
224	0x3d3b218a	0.045686282
225	0xbd2a93d6	-0.041644894
226	0x3ce973f4	0.028497674
227	0x3c498190	0.0122989565
228	0x3d6c50f8	0.057694405
229	0x3d3784f2	0.04480452
230	0xbd48db3c	-0.049037203
231	0xbcb9e710	-0.022693187
232	0xbbde4fb0	-0.006784402
233	0x3d765866	0.060142897
234	0xbd3a1326	-0.045428418
235	0x3d24ec5a	0.040264465
236	0x3d0a76ae	0.033804588
237	0x3ceead38	0.029135332
238	0x3c4ad660	0.012380213
239	0xbbc06800	-0.0058717728
240	0x3a919580	0.0011107177
241	0xbd643e2c	-0.055723354
242	0x3cf96904	0.030445583
243	0x3c269498	0.010167263
244	0x3d6e746e	0.058216505
245	0xbc3b6828	-0.011438407
246	0x3d53ea32	0.051737018
247	0xbcb3d05c	-0.02194994
248	0xbd30e2c6	-0.043185018
249	0xbd770b6a	-0.06031362
250	0xbd4791e8	-0.04872313
251	0x3d1e3b8e	0.038631015
252	0xbd354546	-0.044255517
253	0x3be53af0	0.0069955513
254	0x3c5ce430	0.0134821385
255	0x3d163672	0.036673017

bias f4 [5]
0	0x3c9a1ce8	0.018812612
1	0x3ccb7720	0.024837077
2	0xbd674f5c	-0.056472167
3	0x3d54ff88	0.052001506
4	0x3c8cd170	0.017189711
